…
      (sin): Conv2d(32, 1, kernel_size=(1, 1), stride=(1, 1))
      (width): Conv2d(32, 1, kernel_size=(1, 1), stride=(1, 1))
      (conv): Conv2d(32, 4, kernel_size=(1, 1), stride=(1, 1))
      (dropout_pos): Dropout(p=0.1, inplace=False)
      (dropout_cos): Dropout(p=0.1, inplace=False)
      (dropout_sin): Dropout(p=0.1, inplace=False)
      (dropout_wid): Dropout(p=0.1, inplace=False)
    )
  )
)
----------------------------------------------------------------
        Layer (type)               Output Shape         Param #
================================================================
            Conv2d-1         [-1, 32, 224, 224]          10,400
       BatchNorm2d-2         [-1, 32, 224, 224]              64
           encoder-3         [-1, 32, 224, 224]               0
            Conv2d-4         [-1, 64, 112, 112]          32,832
       BatchNorm2d-5         [-1, 64, 112, 112]             128
           encoder-6         [-1, 64, 112, 112]               0
            Conv2d-7          [-1, 128, 56, 56]         131,200
       BatchNorm2d-8          [-1, 128, 56, 56]             256
           encoder-9          [-1, 128, 56, 56]               0
           Conv2d-10          [-1, 128, 56, 56]         147,584
      BatchNorm2d-11          [-1, 128, 56, 56]             256
           Conv2d-12          [-1, 128, 56, 56]         147,584
      BatchNorm2d-13          [-1, 128, 56, 56]             256
    ResidualBlock-14          [-1, 128, 56, 56]               0
           Conv2d-15          [-1, 128, 56, 56]         147,584
      BatchNorm2d-16          [-1, 128, 56, 56]             256
           Conv2d-17          [-1, 128, 56, 56]         147,584
      BatchNorm2d-18          [-1, 128, 56, 56]             256
    ResidualBlock-19          [-1, 128, 56, 56]               0
           Conv2d-20          [-1, 128, 56, 56]         147,584
      BatchNorm2d-21          [-1, 128, 56, 56]             256
           Conv2d-22          [-1, 128, 56, 56]         147,584
      BatchNorm2d-23          [-1, 128, 56, 56]             256
    ResidualBlock-24          [-1, 128, 56, 56]               0
    ResidualBlock-25          [-1, 256, 56, 56]               0
           Conv2d-26          [-1, 256, 56, 56]         590,080
      BatchNorm2d-27          [-1, 256, 56, 56]             512
           Conv2d-28          [-1, 256, 56, 56]         590,080
      BatchNorm2d-29          [-1, 256, 56, 56]             512
    ResidualBlock-30          [-1, 256, 56, 56]               0
    ResidualBlock-31          [-1, 384, 56, 56]               0
           Conv2d-32          [-1, 384, 56, 56]       1,327,488
      BatchNorm2d-33          [-1, 384, 56, 56]             768
           Conv2d-34          [-1, 384, 56, 56]       1,327,488
      BatchNorm2d-35          [-1, 384, 56, 56]             768
    ResidualBlock-36          [-1, 384, 56, 56]               0
           Conv2d-37           [-1, 64, 31, 31]         393,280
      BatchNorm2d-38           [-1, 64, 31, 31]             128
          encoder-39           [-1, 64, 31, 31]               0
           Conv2d-40           [-1, 32, 15, 15]          32,800
      BatchNorm2d-41           [-1, 32, 15, 15]              64
          encoder-42           [-1, 32, 15, 15]               0
           Conv2d-43           [-1, 32, 15, 15]          32,800
      BatchNorm2d-44           [-1, 32, 15, 15]              64
          encoder-45           [-1, 32, 15, 15]               0
        AvgPool2d-46             [-1, 32, 4, 2]               0
          Flatten-47                  [-1, 256]               0
    down_sampling-48                  [-1, 256]               0
           Conv2d-49           [-1, 32, 15, 15]           9,248
      BatchNorm2d-50           [-1, 32, 15, 15]              64
           Conv2d-51           [-1, 32, 15, 15]           9,248
      BatchNorm2d-52           [-1, 32, 15, 15]              64
    ResidualBlock-53           [-1, 32, 15, 15]               0
           Conv2d-54           [-1, 32, 15, 15]           9,248
      BatchNorm2d-55           [-1, 32, 15, 15]              64
           Conv2d-56           [-1, 32, 15, 15]           9,248
      BatchNorm2d-57           [-1, 32, 15, 15]              64
    ResidualBlock-58           [-1, 32, 15, 15]               0
    ResidualBlock-59           [-1, 64, 15, 15]               0
           Conv2d-60           [-1, 64, 15, 15]          36,928
      BatchNorm2d-61           [-1, 64, 15, 15]             128
           Conv2d-62           [-1, 64, 15, 15]          36,928
      BatchNorm2d-63           [-1, 64, 15, 15]             128
    ResidualBlock-64           [-1, 64, 15, 15]               0
          decoder-65           [-1, 96, 15, 15]               0
  ConvTranspose2d-66           [-1, 64, 31, 31]          98,368
      BatchNorm2d-67           [-1, 64, 31, 31]             128
          decoder-68           [-1, 64, 31, 31]               0
          decoder-69          [-1, 128, 31, 31]               0
  ConvTranspose2d-70          [-1, 128, 56, 56]         262,272
      BatchNorm2d-71          [-1, 128, 56, 56]             256
          decoder-72          [-1, 128, 56, 56]               0
          decoder-73          [-1, 256, 56, 56]               0
  ConvTranspose2d-74         [-1, 64, 112, 112]         262,208
      BatchNorm2d-75         [-1, 64, 112, 112]             128
          decoder-76         [-1, 64, 112, 112]               0
          decoder-77        [-1, 128, 112, 112]               0
  ConvTranspose2d-78         [-1, 32, 224, 224]          65,568
      BatchNorm2d-79         [-1, 32, 224, 224]              64
          decoder-80         [-1, 32, 224, 224]               0
          decoder-81         [-1, 64, 224, 224]               0
  ConvTranspose2d-82         [-1, 32, 224, 224]         165,920
          Dropout-83         [-1, 32, 224, 224]               0
           Conv2d-84          [-1, 1, 224, 224]              33
          Dropout-85         [-1, 32, 224, 224]               0
           Conv2d-86          [-1, 1, 224, 224]              33
          Dropout-87         [-1, 32, 224, 224]               0
           Conv2d-88          [-1, 1, 224, 224]              33
          Dropout-89         [-1, 32, 224, 224]               0
           Conv2d-90          [-1, 1, 224, 224]              33
           Conv2d-91          [-1, 4, 224, 224]             132
           Output-92  [[-1, 1, 224, 224], [-1, 1, 224, 224], [-1, 1, 224, 224], [-1, 1, 224, 224], [-1, 4, 224, 224]]               0
/home/krish/anaconda3/envs/project_env_1/lib/python3.8/site-packages/torchsummary/torchsummary.py:93: RuntimeWarning: overflow encountered in long_scalars
  total_output += np.prod(summary[layer]["output_shape"])
        Res_U_Net-93  [[-1, 1, 224, 224], [-1, 1, 224, 224], [-1, 1, 224, 224], [-1, 1, 224, 224], [-1, 4, 224, 224]]               0
…
