…
      (sin): Conv2d(32, 1, kernel_size=(2, 2), stride=(1, 1))
      (width): Conv2d(32, 1, kernel_size=(2, 2), stride=(1, 1))
      (conv): Conv2d(32, 4, kernel_size=(2, 2), stride=(1, 1))
      (dropout_pos): Dropout(p=0.1, inplace=False)
      (dropout_cos): Dropout(p=0.1, inplace=False)
      (dropout_sin): Dropout(p=0.1, inplace=False)
      (dropout_wid): Dropout(p=0.1, inplace=False)
    )
  )
)
----------------------------------------------------------------
        Layer (type)               Output Shape         Param #
================================================================
            Conv2d-1         [-1, 32, 224, 224]          10,400
       BatchNorm2d-2         [-1, 32, 224, 224]              64
            Conv2d-3         [-1, 64, 112, 112]          32,832
       BatchNorm2d-4         [-1, 64, 112, 112]             128
            Conv2d-5          [-1, 128, 56, 56]         131,200
       BatchNorm2d-6          [-1, 128, 56, 56]             256
            Conv2d-7          [-1, 128, 56, 56]         147,584
       BatchNorm2d-8          [-1, 128, 56, 56]             256
            Conv2d-9          [-1, 128, 56, 56]         147,584
      BatchNorm2d-10          [-1, 128, 56, 56]             256
    ResidualBlock-11          [-1, 128, 56, 56]               0
           Conv2d-12          [-1, 128, 56, 56]         147,584
      BatchNorm2d-13          [-1, 128, 56, 56]             256
           Conv2d-14          [-1, 128, 56, 56]         147,584
      BatchNorm2d-15          [-1, 128, 56, 56]             256
    ResidualBlock-16          [-1, 128, 56, 56]               0
           Conv2d-17          [-1, 128, 56, 56]         147,584
      BatchNorm2d-18          [-1, 128, 56, 56]             256
           Conv2d-19          [-1, 128, 56, 56]         147,584
      BatchNorm2d-20          [-1, 128, 56, 56]             256
    ResidualBlock-21          [-1, 128, 56, 56]               0
           Conv2d-22          [-1, 128, 56, 56]         147,584
      BatchNorm2d-23          [-1, 128, 56, 56]             256
           Conv2d-24          [-1, 128, 56, 56]         147,584
      BatchNorm2d-25          [-1, 128, 56, 56]             256
    ResidualBlock-26          [-1, 128, 56, 56]               0
           Conv2d-27          [-1, 128, 56, 56]         147,584
      BatchNorm2d-28          [-1, 128, 56, 56]             256
           Conv2d-29          [-1, 128, 56, 56]         147,584
      BatchNorm2d-30          [-1, 128, 56, 56]             256
    ResidualBlock-31          [-1, 128, 56, 56]               0
GenerativeResnet_encoder-32          [-1, 128, 56, 56]               0
           Conv2d-33           [-1, 64, 31, 31]         131,136
      BatchNorm2d-34           [-1, 64, 31, 31]             128
          encoder-35           [-1, 64, 31, 31]               0
           Conv2d-36           [-1, 32, 15, 15]          32,800
      BatchNorm2d-37           [-1, 32, 15, 15]              64
          encoder-38           [-1, 32, 15, 15]               0
           Conv2d-39           [-1, 32, 15, 15]          32,800
      BatchNorm2d-40           [-1, 32, 15, 15]              64
          encoder-41           [-1, 32, 15, 15]               0
        AvgPool2d-42             [-1, 32, 4, 2]               0
          Flatten-43                  [-1, 256]               0
    down_sampling-44                  [-1, 256]               0
           Conv2d-45           [-1, 32, 15, 15]           9,248
      BatchNorm2d-46           [-1, 32, 15, 15]              64
           Conv2d-47           [-1, 32, 15, 15]           9,248
      BatchNorm2d-48           [-1, 32, 15, 15]              64
    ResidualBlock-49           [-1, 32, 15, 15]               0
           Conv2d-50           [-1, 32, 15, 15]           9,248
      BatchNorm2d-51           [-1, 32, 15, 15]              64
           Conv2d-52           [-1, 32, 15, 15]           9,248
      BatchNorm2d-53           [-1, 32, 15, 15]              64
    ResidualBlock-54           [-1, 32, 15, 15]               0
           Conv2d-55           [-1, 32, 15, 15]           9,248
      BatchNorm2d-56           [-1, 32, 15, 15]              64
           Conv2d-57           [-1, 32, 15, 15]           9,248
      BatchNorm2d-58           [-1, 32, 15, 15]              64
    ResidualBlock-59           [-1, 32, 15, 15]               0
  ConvTranspose2d-60           [-1, 64, 31, 31]          32,832
      BatchNorm2d-61           [-1, 64, 31, 31]             128
          decoder-62           [-1, 64, 31, 31]               0
  ConvTranspose2d-63          [-1, 128, 56, 56]         131,200
      BatchNorm2d-64          [-1, 128, 56, 56]             256
          decoder-65          [-1, 128, 56, 56]               0
  ConvTranspose2d-66         [-1, 64, 113, 113]         131,136
      BatchNorm2d-67         [-1, 64, 113, 113]             128
  ConvTranspose2d-68         [-1, 32, 225, 225]          32,800
      BatchNorm2d-69         [-1, 32, 225, 225]              64
  ConvTranspose2d-70         [-1, 32, 225, 225]          82,976
GenerativeResnet_decoder-71         [-1, 32, 225, 225]               0
          Dropout-72         [-1, 32, 225, 225]               0
           Conv2d-73          [-1, 1, 224, 224]             129
          Dropout-74         [-1, 32, 225, 225]               0
           Conv2d-75          [-1, 1, 224, 224]             129
          Dropout-76         [-1, 32, 225, 225]               0
           Conv2d-77          [-1, 1, 224, 224]             129
          Dropout-78         [-1, 32, 225, 225]               0
           Conv2d-79          [-1, 1, 224, 224]             129
           Conv2d-80          [-1, 4, 224, 224]             516
           Output-81  [[-1, 1, 224, 224], [-1, 1, 224, 224], [-1, 1, 224, 224], [-1, 1, 224, 224], [-1, 4, 224, 224]]               0
/home/krish/anaconda3/envs/project_env_1/lib/python3.8/site-packages/torchsummary/torchsummary.py:93: RuntimeWarning: overflow encountered in long_scalars
  total_output += np.prod(summary[layer]["output_shape"])
           ResNet-82  [[-1, 1, 224, 224], [-1, 1, 224, 224], [-1, 1, 224, 224], [-1, 1, 224, 224], [-1, 4, 224, 224]]               0
…
